…
    (12): ReLU(inplace=True)
  )
  (classifier): Sequential(
    (0): Dropout(p=0.5, inplace=False)
    (1): Linear(in_features=12544, out_features=1000, bias=True)
    (2): ReLU(inplace=True)
    (3): Dropout(p=0.5, inplace=False)
    (4): Linear(in_features=1000, out_features=256, bias=True)
    (5): ReLU(inplace=True)
    (6): Linear(in_features=256, out_features=43, bias=True)
  )
)
----------------------------------------------------------------
        Layer (type)               Output Shape         Param #
================================================================
            Conv2d-1           [-1, 64, 56, 56]           1,792
         MaxPool2d-2           [-1, 64, 28, 28]               0
              ReLU-3           [-1, 64, 28, 28]               0
            Conv2d-4          [-1, 192, 28, 28]         110,784
         MaxPool2d-5          [-1, 192, 14, 14]               0
              ReLU-6          [-1, 192, 14, 14]               0
            Conv2d-7          [-1, 384, 14, 14]         663,936
              ReLU-8          [-1, 384, 14, 14]               0
            Conv2d-9          [-1, 256, 14, 14]         884,992
             ReLU-10          [-1, 256, 14, 14]               0
           Conv2d-11          [-1, 256, 14, 14]         590,080
        MaxPool2d-12            [-1, 256, 7, 7]               0
             ReLU-13            [-1, 256, 7, 7]               0
          Dropout-14                [-1, 12544]               0
           Linear-15                 [-1, 1000]      12,545,000
             ReLU-16                 [-1, 1000]               0
          Dropout-17                 [-1, 1000]               0
           Linear-18                  [-1, 256]         256,256
             ReLU-19                  [-1, 256]               0
           Linear-20                   [-1, 43]          11,051
================================================================
Total params: 15,063,891
Trainable params: 15,063,891
Non-trainable params: 0
----------------------------------------------------------------
Input size (MB): 0.14
Forward/backward pass size (MB): 6.63
Params size (MB): 57.46
Estimated Total Size (MB): 64.24
----------------------------------------------------------------
None
Model's state dict:
…
